example_loras/lora_disney_inpainting.safetensors (safetensors, 811534 bytes, 386 tensors)

<s1> f4 [768]
00000000: 2cc9 ac3c 5aba 523c 89c3 9bbc 57d5 983c
00000010: 6cdc c5bc 97c7 99bc c4b4 61bc 8eac 24bc
00000020: 62fb 593b 1bfd a6ba 4c29 61bb 230e 18bd
00000030: af11 cd3b a060 903b 2abb eabb 7f2a 2c3c
00000040: fe31 aabb 4da9 e8bc 6b41 3a3c bbb2 c4bb
00000050: dbf1 d9bc 9a3b 003d 2dd6 4abc 0132 b6bc
00000060: 159d 933c 92c5 e83c 898d 9b3b 5201 2bbb
00000070: c548 8aba ed4e c23c 19d4 75bb 8195 493c
00000080: 6e69 5b3a f792 b5bc 094e 903c 3419 033c
00000090: 4e8d 803c a14a 953b b80d dabc 1010 c5bb
000000a0: 4d48 5cbc 41aa 33bc 06fa 383c f0d6 f5bb
000000b0: 9f8d 753c 24f6 993c 6a3e 3ebc 51b8 f23b
000000c0: e50f 52ba fb05 d8bb 9f2d 90bc 3e73 18bc
000000d0: 4627 9b3c 6dff 953c e62a 4dbb b57e 95bb
000000e0: 8c21 8ebc 5019 9b3c 0a62 6c3b 4409 e53b
000000f0: 50fd 83bc 877b 33bb bb3d 283c e36a 403d
00000100: b589 663c 939f eabb 111c 333c 2680 9f3c
00000110: ea70 86ba 5719 2e3b d60c 4d3c 31ea 183c
00000120: 31da ee3b 4b49 34bc 8192 bc3c b14b 57bc
00000130: 8b4c 1d3d 8d71 1f3c 3b94 9e3b b67a 75bb
00000140: f573 1f3c 5d47 bfba 733f 133c cdd1 e03c
00000150: c049 9c3b ec7e 34bc 2a7f 7ebc 01a1 243b
00000160: bbf6 dabc 15a7 84bb f747 1ebc b612 b5bc
00000170: 2535 eaba e8cc b43a dbb1 463b 29d5 93ba
00000180: 4375 b1bb 16d5 8cbb 647b ec3c 2026 a23c
00000190: 13bc 4abc f8e6 ab3a d48b 443c 83ca b5ba
000001a0: 0acc acbb 8a83 353c af3f d43b 090f 5c3b
000001b0: 7193 23ba 1a32 1dbc 27c7 b0bc ec8f 85bb
000001c0: 4932 b6bc 9b64 0dbd 8b24 043c b11b 1fbc
000001d0: 43eb 00bb 1c6f 863b fc4e 633c a34b f23b
000001e0: 2b69 b3bc abc7 e53b 9b91 3abb 3148 133c
000001f0: 14e4 693a d370 e73b d24c 8f3c 945a bb3b
00000200: 4723 ddbc 8398 34bc 7b72 66bc 82b4 4b3c
00000210: b851 093c c0ab a23c 01ad cb3b 8e57 85bc
00000220: a993 29bb 351e fdbb f94b ef3c 187b a43a
00000230: be1e 70bb 46ec e9bc 1f72 293c 9698 d3bb
00000240: 1376 1f3c 871f 9b3c ae5e 263c 2817 293b
00000250: 3e6d 9f3b 7e8a 153d 20f9 253c cd3f 3cbc
00000260: db3e 763c 5d5c a1bc 125c 7aba 2f32 f5b8
00000270: 1736 bfbc 2534 77bc b7d1 b2bb 7ba6 9ebb
00000280: c529 03bd b5ed 9a3b 724d dfbb 8c87 ef3c
00000290: fd67 e33b ff6d 9bbc 7ff8 223c d978 013c
000002a0: 3951 9fbc 1943 79bb 55d2 563c 1bcf 9a3b
000002b0: a9e1 98bb 582c 27bc a971 913c 273a 153b
000002c0: 2728 f43b 65a5 ca3c f8d7 07bc 9460 73bb
000002d0: 380b fabb 8a11 013d 4c1f 93bc e90d 343c
000002e0: 06df bfbb 0f36 f23c d166 97bc 603e 7d3b
000002f0: 07fe 663c 04b8 5f39 7fc9 6cbb d1eb 40bc
00000300: d858 e23b 2186 f0bb 0cec d6bc 7c10 1aba
00000310: af89 28bc 94c1 63b9 b0ab ec39 b75b 223c
00000320: 4c1d e73a 340c dfbc 057e a5bc d235 a83c
00000330: 9cfb 05bc 1f7e c63c e8f6 90bc f7d1 953b
00000340: caa3 5cbb 5e74 a53b 1f0a 033c feb9 443c
00000350: 28a4 b3ba 1a8c 64bc 68bb a4bc a633 32bc
00000360: 61ad 1bbc 7526 35bc 8039 f0bc a1e0 2f3c
00000370: c6f5 17bc 6d3a f1bb 5e1c 8d3b 31e8 203a
00000380: 6456 f6bb adc3 ef3b a70f 1cbc 55f5 643c
00000390: b15b ca3c 4ae2 b7bc 9770 61ba 12fd 0a3c
000003a0: 3685 d83b 87b5 9fbb 97c4 98bb 0bd7 39bc
000003b0: 7a72 863a 669f 113c 9ca6 f43b c74a 153c
000003c0: bcc9 1b3d 847b a5bc b807 68bc de1d 16bb
000003d0: 2df5 fc3b 2d4d 70bb f0b0 83b9 702a b83b
000003e0: 6604 19bc 4cff c83c ff7b 373c ae6c c63c
000003f0: 07a5 98ba 1252 6dbc 9e8d f9ba 1288 9a3b
0.02109202 0.0128618125 -0.019014137 0.018656416 -0.024152957 -0.01877193 -0.013776008 -0.010050906
0.0033261408 -0.0012740226 -0.003435689 -0.037122857 0.0062582116 0.00440605 -0.007163425 0.010508179
-0.005193948 -0.028401041 0.011368136 -0.0060027516 -0.026604583 0.03130684 -0.012380165 -0.02224064
0.018019238 0.028414521 0.004747097 -0.0026093316 -0.0010550251 0.023719275 -0.0037510453 0.012303711
0.0008369897 -0.022164805 0.017615335 0.008001614 0.01569238 0.0045560156 -0.02661787 -0.0060138777
-0.013444972 -0.010965885 0.011290079 -0.007502429 0.014987378 0.018794127 -0.01161156 0.007407226
-0.0008013233 -0.00659251 -0.017599879 -0.00930482 0.018939625 0.018310273 -0.0031306087 -0.004562224
-0.01734998 0.018932968 0.0036069178 0.00698963 -0.016112 -0.002738686 0.010268624 0.046976935
0.014070918 -0.007160136 0.0109319845 0.019470286 -0.001025704 0.0026565397 0.012515267 0.009333179
0.007289194 -0.0110038025 0.023019077 -0.013140605 0.038403075 0.009731662 0.004839448 -0.0037457175
0.009732236 -0.0014593411 0.008987295 0.02744379 0.004769534 -0.011016589 -0.015533248 0.002512038
-0.026728978 -0.004048238 -0.009660712 -0.022103649 -0.0017868622 0.0013793977 0.0030318412 -0.0011278737
-0.00541559 -0.0042978628 0.028867431 0.01979357 -0.012373942 0.0013115099 0.011996228 -0.0013869557
-0.005273347 0.011078725 0.0064773182 0.0033578298 -0.0006239927 -0.009594465 -0.021579338 -0.0040759947
-0.022240775 -0.034519773 0.008065353 -0.009711192 -0.0019671477 0.0041026007 0.013873812 0.0073942705
-0.021900734 0.0070123277 -0.0028468135 0.00898938 0.0008922231 0.0070630102 0.017492685 0.005717585
-0.02699436 -0.01102269 -0.01406538 0.012433173 0.0083813 0.019857287 0.006215692 -0.0162771
-0.0025875366 -0.007724548 0.029211031 0.0012548892 -0.0036639418 -0.028555047 0.01034215 -0.0064573986
0.009732741 0.018935932 0.010154409 0.0025801156 0.0048653176 0.03650903 0.010130197 -0.011489821
0.015029634 -0.019697363 -0.0009550463 -0.00011691858 -0.023341222 -0.015088116 -0.005457129 -0.0048416234
-0.032022256 0.004728044 -0.006814652 0.029239438 0.0069398866 -0.018973349 0.009946941 0.0079023475
-0.01944791 -0.0038034378 0.0131116705 0.004724396 -0.0046655727 -0.0102034435 0.017754393 0.0022770257
0.0074510756 0.02473707 -0.008291237 -0.0037136422 -0.007630732 0.031510867 -0.01795926 0.010989645
-0.005855444 0.029566793 -0.018481644 0.0038641915 0.014098651 0.00021335488 -0.0036130843 -0.011774973
0.0069075637 -0.007340208 -0.026235603 -0.000587709 -0.010286733 -0.0002172052 0.00045141345 0.009909562
0.0017632633 -0.027227499 -0.020201692 0.020533476 -0.008177664 0.024230061 -0.01769586 0.004572149
-0.0033666962 0.0050492724 0.0079980185 0.012007235 -0.0013705539 -0.013949418 -0.020108894 -0.010876572
-0.009501786 -0.011056532 -0.029324293 0.010734708 -0.009274906 -0.007361701 0.00430636 0.0006138115
-0.007517623 0.0073170275 -0.009525216 0.013974507 0.024701925 -0.02244677 -0.0008599846 0.008483188
0.006607677 -0.0048739347 -0.004662107 -0.011342774 0.0010257505 0.008888101 0.0074661504 0.009112067
0.038034186 -0.020200498 -0.014161997 -0.0022905986 0.007719657 -0.0036667094 -0.00025118096 0.0056202933
-0.009339428 0.024535798 0.011198997 0.024221744 -0.0011645862 -0.014484899 -0.0019039398 0.004715928

<s2> f4 [768]
00000000: 3220 bebc 1d19 0d3b c1c7 063d b994 783b
00000010: b62d 723c 74cd 88bb e3e1 ebb9 5151 febb
00000020: d649 2ebc e3c9 babc ca2a 4e3c eeff 893b
00000030: 3f9f 593a b0d6 133c 0c1b 3d3c 599b cdbc
00000040: 8722 38bc cb80 ecbc fde1 263c b065 a43b
00000050: 5082 a73b 2e62 3ebb cf3c 10bc 74da 9d3c
00000060: a322 8fbc 4fb1 f53c b4db 0cbb dfb0 0cbb
00000070: 81b2 92bb 5020 a23c 99dd 7abc 9b9b 92bc
00000080: be80 93bc 41cb 41bb 5a52 4a3c c619 e53c
00000090: ab51 523b 10c7 863c c8e3 ed3b fb14 ff3b
000000a0: a5fd 89bc 702f 873c 6965 60bc 0d64 a03c
000000b0: 127d 053d ab4c fe3a 2f69 40bb 8e34 193c
000000c0: a62f 97bb b45c ba3b ca35 a1bc 1aaf 353b
000000d0: 3913 ea3c 014b 3cbc aaa1 a9bb 041c 56bc
000000e0: f240 2bbc abc1 0ebb c3d3 a13b 328f bfbc
000000f0: 0c69 3fbd c0df f1bc 89b7 dcbb ff57 64bc
00000100: ccbf efbb 3b2e 8c3c 572e 6fbc 112e 52bb
00000110: 9cc1 833c b478 20ba eb26 a43b 6a85 a9bc
00000120: 5473 d0bb 6a96 82bc 1b7f 14bc 33e1 07bd
00000130: a781 96bc 00d4 003b 4ad3 5f39 8171 eabb
00000140: 084b 48bc 90c0 c23b 0e30 c4bb 47cc d43c
00000150: 7e71 37bc 557f 0fbc 85c3 b0b9 36f5 0e3c
00000160: 7386 3fbc e5a7 013c 9785 e0bb 3bac 9d3a
00000170: 88bf 8a3b 5580 79bc 5674 86bb 9210 8f3b
00000180: d4de 80bc f453 47bb b120 c0ba d04c 12bd
00000190: 4907 683c 62dd 973c cf4d bdbb cc5f a13a
000001a0: 40f6 863b d81f 763c 5da1 bbbc ac55 5cbc
000001b0: 2de8 2cbb 2ef6 773c 1704 cfbb bad5 a23c
000001c0: 599e 17bc 5f71 e53c bf7a fe38 16c6 f63b
000001d0: d4a5 683c 73d0 95bc 2f7a a23c 34e2 833c
000001e0: e348 d8bc c43d 90bc 90cf 6f3b e337 73bc
000001f0: f52f 2b3c a074 843b bc95 16bb a50a 673c
00000200: ec5f 91bc 7c73 debc 85b2 503c 321b a4bc
00000210: ffc6 b33b a356 83bc be11 dd3c 01d3 273c
00000220: a60d 273c c0b9 3dbc a129 463c 8b9c 5fbb
00000230: 6e19 ac3c 07fe 463b 2ece 693b b961 393c
00000240: 0333 2eba cd56 b7ba 13be 84bc b0b0 37bc
00000250: 40a1 28bc 1177 223c aab3 663c 70e9 553c
00000260: e73f 1f3b 691f b6bc ae10 2abd 515d acbc
00000270: c96a b83a b202 453c 0d6e 7f3c 5653 41bc
00000280: 58fb 273a 4ac5 263c 36af fb3b ef4c 72bc
00000290: d967 ca3c e024 10bc 19ef 94bc 6449 9ebb
000002a0: 06bc 8c3b 838d 5fbb e5ac 913c 0b87 02bc
000002b0: 3106 0e3d 4480 283c 74cc 803a 6fa1 1a3c
000002c0: f31d 03bd e010 b739 4dee 1b3d 3488 b43a
000002d0: 971c d6bb 56e3 c7bb 389f 41bc 48f3 d33b
000002e0: ecbe 5d3c 0df6 913c 0e17 86bc 6e9f 74bb
000002f0: 1b10 c0bc c611 c5bc b2eb d0bc cd70 9d3c
00000300: ce22 0a3b 94cf 5d3b 5814 9ebc 938b 563c
00000310: 49c9 213c 4a4b 823c 3e08 7ebb ea72 84b9
00000320: 2e54 e5bb a954 26bb b2d0 a3bc 5ed9 173c
00000330: bb1d 88bc eb8d 38bc 2687 bf3c b2b0 913c
00000340: a489 fbba cfc8 b6bb 5349 c03c 50d9 df39
00000350: 3d45 49bb 7144 70bb 8161 fdbb 2ffe 2abc
00000360: af04 dc3b 5dfb 943b 2464 fd3c 73ad e13b
00000370: ac5c 1e3d a871 f1bb 0c5a 433c 9a0c 1d3a
00000380: 39c8 573c ac8e 253c 459c 42bc a370 a039
00000390: 434b 70bc f8c8 25bc 68b3 14bb f7e4 d4bb
000003a0: 65b1 b83c 9834 9a3b 71b6 ce3c e108 43bb
000003b0: 02e3 9c3c ba3d 6bbb ece3 72bc af83 9bba
000003c0: 8719 0b3c 77cb b13c 451d 863c 3385 dc3c
000003d0: b531 4abc 1a54 cebb 2565 173c 9c77 51ba
000003e0: ce08 c2bc 5d81 b63c 7df0 50bc ff08 503b
000003f0: bfd2 a23c 4350 81bc ac40 883b ad89 603b
-0.023208711 0.0021529861 0.032905344 0.0037930442 0.014781406 -0.0041748825 -0.00044990992 -0.0077611585
-0.010637721 -0.022801345 0.012583444 0.0042114174 0.00083016226 0.009023353 0.011542093 -0.02509849
-0.011238701 -0.028870007 0.010185716 0.005017005 0.00511197 -0.002905022 -0.00880356 0.019269206
-0.01747257 0.029991774 -0.0021493258 -0.0021467728 -0.0044768457 0.019790798 -0.015311622 -0.017896464
-0.018005725 -0.0029570612 0.012348736 0.027966391 0.0032092135 0.016452342 0.0072598197 0.0077844835
-0.01684458 0.016502112 -0.013696053 0.019578958 0.03258998 0.0019401511 -0.002935957 0.009350909
-0.0046138344 0.0056873206 -0.019678969 0.0027722777 0.02857362 -0.011492492 -0.0051767426 -0.013068203
-0.010452496 -0.0021782916 0.004938574 -0.02338371 -0.04673104 -0.029525638 -0.0067357463 -0.0139369955
-0.007316565 0.017111888 -0.014598451 -0.0032070915 0.016083531 -0.0006121502 0.005009522 -0.0206935
-0.0063614044 -0.015940864 -0.009063507 -0.03317375 -0.01837237 0.0019657612 0.00021345649 -0.007154644
-0.01222492 0.0059433654 -0.005987174 0.025976313 -0.011196492 -0.008758386 -0.0003371501 0.008725455
-0.01168977 0.007913564 -0.0068518627 0.0012029478 0.004234258 -0.015228351 -0.004103224 0.004365989
-0.015731253 -0.003041503 -0.001465818 -0.035717785 0.014161893 0.01853818 -0.005777098 0.0012311875
0.0041187108 0.015022241 -0.022904092 -0.01344816 -0.0026383505 0.015134377 -0.006317626 0.019877303
-0.009254062 0.028008161 0.00012134527 0.007530938 0.014199693 -0.018287873 0.019833652 0.016099073
-0.026401943 -0.017607577 0.0036592223 -0.014844867 0.010448446 0.004042223 -0.0022977432 0.014101659
-0.017745934 -0.027154677 0.012737875 -0.020032499 0.0054863687 -0.016032523 0.026986 0.010243178
0.010196125 -0.011579931 0.012094886 -0.0034120406 0.02100822 0.0030363814 0.0035675871 0.011314803
-0.00066451746 -0.0013987661 -0.016203916 -0.011211559 -0.010292351 0.009916083 0.014080921 0.013056144
0.0024299563 -0.022231774 -0.041519813 -0.02104059 0.001406991 0.012024568 0.015590203 -0.011799654
0.00064079976 0.010178873 0.007680799 -0.01478885 0.024707722 -0.008797854 -0.018180417 -0.004830526
0.004294875 -0.0034111447 0.017782638 -0.007966767 0.034673873 0.010284487 0.0009826557 0.009437903
-0.032010984 0.00034917053 0.03806906 0.0013773502 -0.00653417 -0.0061000986 -0.011817746 0.0064682104
0.013534289 0.017817521 -0.016368415 -0.0037326473 -0.02344518 -0.024056327 -0.025503013 0.019218827
0.0021077874 0.003384565 -0.01929681 0.0130948005 0.00987465 0.015905041 -0.0038762237 -0.0002526262
-0.0069985604 -0.0025380051 -0.019996975 0.009268133 -0.01661574 -0.011264305 0.023379873 0.01778445
-0.00191908 -0.0055781375 0.023472464 0.00042695785 -0.0030711435 -0.0036661888 -0.0077325706 -0.010436579
0.0067144255 0.0045465664 0.03093154 0.006887132 0.038662598 -0.007368285 0.011923324 0.00059909525
0.013170295 0.010104816 -0.011878078 0.000306015 -0.014666381 -0.010118715 -0.0022689942 -0.0064970213
0.022545526 0.0047059767 0.02523348 -0.002975993 0.019151215 -0.0035894946 -0.014824849 -0.0011864806
0.008489973 0.021703465 0.016371379 0.026918983 -0.012340953 -0.006296647 0.009240423 -0.00079905405
-0.023685839 0.022278482 -0.012752649 0.0031743643 0.019875882 -0.015785342 0.0041581 0.0034261749

text_encoder:0:down f2 [1, 768]
00000000: a338 75b5 09b1 0abc 6432 ba40 aabd 9d30
00000010: 44b8 3c3c 30b0 68bf 0b35 baac d4be efb4
00000020: 1c3a f3b1 c93e 40b8 25ba 33b9 dfba d93d
00000030: 2fb3 73bc 9f25 23bd 40bd 083a 18a8 d434
00000040: 3ab1 cfbe c5b9 e438 c82d 32b6 4132 113b
00000050: cac1 d83c d7bf 60b8 87bc dcbd 93b5 c138
00000060: 5438 dbb8 2940 3c3b dfb4 5238 f8ba d437
00000070: 9a3c ebbd 3bbc 39b2 b63c 82b7 5b32 a83e
00000080: eb3d 09b5 463c e33c 403c 33b3 e93d 7db6
00000090: 05ba 51b7 4b38 a2bf d4bb c438 95bd ed3d
000000a0: 7abf 5ab4 0035 6bb0 57b9 da33 e336 af2a
000000b0: 44b5 e131 6e3f 179d 8ebc 0534 262a 56b6
000000c0: 943c 1bbb 5238 6a3b 96b9 49b5 5336 c5b1
000000d0: 4638 5135 d33c ebbb ab30 693d 4137 e7bc
000000e0: 173e 503d a5ae e5b9 2a40 0db7 d23c 923a
000000f0: 10bd d03e efba 2e2e e5bc 22b9 423b 4db2
00000100: 6eb0 49a8 1540 5cb6 08b8 5d40 6237 3b3b
00000110: ab3e 543e 1238 7cb9 e4bb 3bb8 f035 13bc
00000120: a4b9 00b5 cdb4 6e30 b83f 1db9 163f 4aaf
00000130: aeb1 fcba e7b2 0333 3dbc e4b5 b137 1dbc
00000140: 783c 6f3f e4b9 4437 b83c 87bd c536 6140
00000150: 85b6 573d 2fb9 7d35 5635 c13c 8bb4 eb2f
00000160: fb41 c93b 9037 3740 7c40 4aba 783d 74a8
00000170: 8e3c 23b0 50b0 2fb9 a4b5 a9be 3f3d 0eb9
00000180: a53d 8441 2e3d 48bb 0330 12b1 14b7 823e
00000190: 0f33 18bc 9b3b fb3a 3139 2235 1c3a 9db7
000001a0: 2138 dbb0 7ab9 6c35 43b8 d23a dbbf 9bbd
000001b0: 0b3d acbb 68af bebc d2ac e9bf dcbc 93ba
000001c0: 5b3c e2b0 4932 c9bf 9c3a 8dbc f738 0434
000001d0: 93b7 23b9 4bbc c137 bbb5 4738 21b8 d7be
000001e0: 35b4 2fb1 1d3c 443f 7e3c a83d 113c eb3c
000001f0: a1b9 e5ba 6536 072b 40b6 5aba 4a34 8735
0.5796 -0.341 -0.1573 -1.01 0.1997 2.363 -1.416 0.1442
-0.533 1.059 -0.1309 -1.852 0.3152 -0.07385 -1.707 -0.3083
0.7637 -0.1859 1.696 -0.5312 -0.768 -0.65 -0.859 1.462
-0.2245 -1.112 0.02196 -1.284 -1.3125 0.754 -0.03198 0.3018
-0.1633 -1.702 -0.721 0.6113 0.09033 -0.3872 0.1954 0.8833
-2.895 1.211 -1.96 -0.547 -1.132 -1.465 -0.3484 0.594
0.541 -0.607 2.08 0.9043 -0.3044 0.54 -0.871 0.4893
1.15 -1.4795 -1.058 -0.1945 1.178 -0.4692 0.1986 1.664
1.4795 -0.3147 1.068 1.222 1.0625 -0.225 1.478 -0.4055
-0.7524 -0.4573 0.5366 -1.908 -0.9785 0.5957 -1.3955 1.481
-1.869 -0.272 0.3125 -0.1381 -0.6675 0.2454 0.4304 0.05222
-0.329 0.1837 1.857 -0.00497 -1.139 0.2512 0.04803 -0.396
1.145 -0.888 0.54 0.927 -0.698 -0.3303 0.3953 -0.1803
0.534 0.3323 1.206 -0.9897 0.1459 1.353 0.4534 -1.226
1.522 1.328 -0.1038 -0.737 2.082 -0.4407 1.205 0.8213
-1.266 1.703 -0.8667 0.09656 -1.224 -0.6416 0.907 -0.1969
-0.1384 -0.03348 2.041 -0.3975 -0.504 2.182 0.4614 0.904
1.667 1.582 0.509 -0.6855 -0.9863 -0.529 0.371 -1.019
-0.705 -0.3125 -0.3 0.1384 1.93 -0.639 1.771 -0.1139
-0.1775 -0.873 -0.2157 0.2191 -1.06 -0.3682 0.4807 -1.028
1.117 1.858 -0.7363 0.454 1.18 -1.382 0.423 2.19
-0.4075 1.335 -0.648 0.343 0.3335 1.188 -0.284 0.1237
2.99 0.973 0.4727 2.107 2.242 -0.786 1.367 -0.0348
1.139 -0.1293 -0.1348 -0.648 -0.3525 -1.665 1.312 -0.632
1.411 2.758 1.295 -0.91 0.1254 -0.1584 -0.4424 1.627
0.2206 -1.023 0.9507 0.8726 0.649 0.3208 0.7637 -0.4758
0.516 -0.1517 -0.6846 0.3389 -0.5327 0.8525 -1.964 -1.401
1.261 -0.959 -0.1157 -1.186 -0.0753 -1.978 -1.215 -0.822
1.089 -0.1526 0.1964 -1.946 0.826 -1.138 0.6206 0.251
-0.4734 -0.642 -1.073 0.4846 -0.3582 0.5347 -0.516 -1.71
-0.263 -0.162 1.028 1.816 1.123 1.414 1.017 1.2295
-0.7036 -0.862 0.3997 0.0549 -0.3906 -0.794 0.268 0.3455

text_encoder:0:up f2 [768, 1]
00000000: f50c 2d11 6612 a391 ae8d 8493 8a92 828f
00000010: 5911 870b 8991 2e11 9891 a491 a011 5a0e
00000020: 7711 248b af11 738e 5a8f 3813 2e91 1100
00000030: 1a0b e710 9a8a 4a8d b08e 9490 4d8c 6411
00000040: 5290 650f bb0f d991 b790 8512 da09 ee0c
00000050: ee8f e014 2e12 d808 f290 6311 ba81 1212
00000060: 030f 7702 d48c 430f 8e0a c010 e30e 668f
00000070: d68d 4f90 0d90 b990 f610 940d b383 a791
00000080: 7c00 388e a580 8c0c a482 0585 4a0b 2787
00000090: 4f0d 608c c780 b08e 0788 7c03 cd08 e006
000000a0: 7085 348a 360c 1806 278c 050b 2d82 5e82
000000b0: 740c 3e08 450b a688 938c 4502 0b87 dd89
000000c0: 6f06 df0a c983 288c 1380 640d f403 ae02
000000d0: 8804 eb80 e580 d30d 0e02 b88a 8f04 0983
000000e0: bf85 3602 f78d ae04 dc07 3b06 cf01 2501
000000f0: ec00 2602 450a 8502 b009 0102 ac09 9482
00000100: a90d fe0d 150f 5611 2d8c 3a92 6d92 2f08
00000110: 7004 d88d b104 bb12 2d06 6b0d 1192 ea92
00000120: 5108 278f c590 6f8d 7b0e 0c8e 8210 470d
00000130: 6604 bf11 478f 4295 ce05 bd92 9186 f090
00000140: 5390 0894 b810 d681 1c82 158c 7a91 3b0c
00000150: 0c8c 2b90 118f ff88 2008 4c8d 718f 4991
00000160: 700a 378e 6f8f ff0e fe84 940c ee90 0412
00000170: 3f0c 0810 9e90 7611 2c09 a413 178a 9f90
00000180: 0b89 7300 9f86 9b8a d501 728c 8d09 b205
00000190: 4483 5608 ae08 ba03 b981 da09 2a8b eb06
000001a0: 970d a80a 9a8c 4108 f68c 1088 158a 060f
000001b0: 9b09 9b0b f300 0c05 948d a910 c78f 0c08
000001c0: 4b0d 388d 000f d280 7b86 0a0f 9e0a 0682
000001d0: 0c00 a408 7c12 3a07 8903 8b0b 5a09 3190
000001e0: 5388 558b 378c 8783 bd09 548d 1904 d989
000001f0: 3d0c 600e 4c03 f088 ac0a 870b ba0e 0309
0.0003026 0.000632 0.000781 -0.000688 -0.0003467 -0.0009174 -0.000798 -0.0004582
0.000653 0.0002297 -0.0006757 0.0006323 -0.000683 -0.0006886 0.0006866 0.0003877
0.000667 -0.0002179 0.000694 -0.0003936 -0.0004487 0.000881 -0.0006323 1e-06
0.0002167 0.0005984 -0.0002015 -0.0003228 -0.0004082 -0.000559 -0.0002625 0.000658
-0.0005274 0.0004513 0.0004718 -0.000714 -0.0005755 0.000796 0.0001786 0.000301
-0.000484 0.00119 0.0007544 0.0001478 -0.0006037 0.0006576 -2.635e-05 0.000741
0.000428 3.76e-05 -0.0002947 0.0004432 0.0002 0.00058 0.0004203 -0.0004516
-0.0003562 -0.000526 -0.0004945 -0.0005765 0.0006056 0.0003405 -5.645e-05 -0.00069
7.4e-06 -0.0003796 -9.83e-06 0.0002775 -4.03e-05 -7.66e-05 0.0002224 -0.00010914
0.000324 -0.000267 -1.186e-05 -0.0004082 -0.0001229 5.317e-05 0.0001465 0.0001049
-8.297e-05 -0.0001893 0.000257 9.3e-05 -0.0002534 0.0002142 -3.32e-05 -3.61e-05
0.0002718 0.0001295 0.0002218 -0.0001419 -0.0002792 3.463e-05 -0.00010747 -0.0001789
9.817e-05 0.0002097 -5.776e-05 -0.0002537 -1.13e-06 0.000329 6.03e-05 4.09e-05
6.914e-05 -1.4e-05 -1.365e-05 0.0003555 3.135e-05 -0.000205 6.956e-05 -4.63e-05
-8.77e-05 3.374e-05 -0.000364 7.14e-05 0.0001199 9.507e-05 2.76e-05 1.746e-05
1.407e-05 3.28e-05 0.0001913 3.844e-05 0.0001736 3.06e-05 0.0001731 -3.934e-05
0.0003455 0.0003657 0.0004323 0.0006514 -0.0002549 -0.00076 -0.0007844 0.0001277
6.77e-05 -0.0003567 7.16e-05 0.0008216 9.423e-05 0.0003307 -0.0007405 -0.000844
0.0001317 -0.0004365 -0.000582 -0.0003316 0.0003955 -0.000369 0.0005503 0.000322
6.71e-05 0.0007014 -0.0004442 -0.001284 8.86e-05 -0.0008225 -0.0001002 -0.0006027
-0.000528 -0.000984 0.000576 -2.8e-05 -3.22e-05 -0.0002491 -0.0006685 0.0002582
-0.000247 -0.000509 -0.0004313 -0.0001525 0.0001259 -0.0003233 -0.0004542 -0.000645
0.0001965 -0.0003793 -0.0004537 0.000427 -7.62e-05 0.0002794 -0.000602 0.0007343
0.0002592 0.000492 -0.0005636 0.0006666 0.0001578 0.0009327 -0.0001858 -0.000564
-0.0001539 6.85e-06 -0.00010103 -0.0002016 2.795e-05 -0.0002713 0.0001694 8.69e-05
-4.98e-05 0.0001323 0.0001428 5.686e-05 -2.63e-05 0.0001786 -0.0002186 0.00010556
0.0003412 0.0002031 -0.0002809 0.0001298 -0.0003028 -0.000124 -0.0001856 0.0004287
0.0001711 0.0002321 1.45e-05 7.7e-05 -0.0003405 0.000569 -0.0004747 0.0001235
0.000323 -0.0003185 0.0004272 -1.25e-05 -9.89e-05 0.0004296 0.000202 -3.09e-05
7e-07 0.0001416 0.0007915 0.00011027 5.394e-05 0.0002302 0.0001633 -0.0005116
-0.000132 -0.0002238 -0.0002573 -5.38e-05 0.0001751 -0.0003252 6.25e-05 -0.0001785
0.0002587 0.000389 5.03e-05 -0.0001507 0.0002036 0.0002297 0.0004106 0.000153

text_encoder:10:down f2 [1, 768]
00000000: 93bc e6ba 952e 93b0 fb37 a8b7 f03b 53b5
00000010: 233d db34 8ab9 c734 283d 32b7 051c c533
00000020: 4b3b 642b 6635 f92d 7b3b 16bc 462e 0633
00000030: 92bc 4530 2e3c 51bb 0ab9 67b6 bb30 3fb1
00000040: 5db9 d330 3138 0535 ba39 8ab8 aa39 93b4
00000050: 413e dfba 4bb4 733b 9a36 1637 97bb 4832
00000060: c73c 4934 0d3c daa2 00a5 2839 2c38 753d
00000070: 9139 c9bb 40bb ceba 06bd 5831 f731 bc3e
00000080: b73d 0439 72af 1030 8337 b8b6 ebb5 c93b
00000090: 233b 873f efb5 37bd 9c35 2cae bc20 39ab
000000a0: 7d3c beb8 77b4 6a3b a831 ebb7 40be 5538
000000b0: 31b4 a63c 97b8 a13c bfb8 6719 22c0 bb3d
000000c0: 77a9 983b 0637 c4b9 cc35 2fb3 37b8 d338
000000d0: 1337 2341 62b9 2abb 7a35 1eb3 0d36 9db9
000000e0: e1bc dab9 1a3e a939 bcba 253d 18bc e139
000000f0: 4a3d 421e 05b3 abb7 3e38 6fac 89b9 4735
00000100: 85b7 2abe f6ba 513d 1a33 b6b9 4626 313f
00000110: 23b6 29bb fc3d d03c ff3a 4c35 e937 54b8
00000120: c0ae c4ae 6fbd 4dbb ad3c e038 e639 ddba
00000130: c035 70ba b33a 88c0 a73f e3b9 a1b6 513f
00000140: 2c32 b2be ccbf 0435 252d 89af 2eb0 6cad
00000150: 9b39 75b2 aebe 86bd 6439 5db6 7f3a 183d
00000160: 1ebe d42c e3a4 69bd 2940 5db5 aeb1 a63d
00000170: 0a3c 18bc 55b7 f83e 57b9 ed3b a034 ddbd
00000180: 1036 a0b4 72b6 7835 8d3d 4db7 b33e 44b6
00000190: 8040 012a fcb6 073b 8e2a 0e39 1f3e 7d3e
000001a0: fe38 cfbe 18bd ba3d 8739 f437 d232 ddb3
000001b0: 113e fa3c 8dbd 4e38 cd3d 152d a236 dcb1
000001c0: d238 67ba b936 29bc 2aba 513d 923c ec2a
000001d0: beb8 2c35 0f35 5138 24bc c1ba 353f 8536
000001e0: b53b c828 f431 9ea8 d7bf d7b6 173d 78bb
000001f0: 2036 b536 d937 f0b4 0538 85bc 92c0 3231
-1.144 -0.8623 0.10284 -0.143 0.4988 -0.4785 0.992 -0.3328
1.284 0.3035 -0.6924 0.2986 1.289 -0.4497 0.003925 0.2428
0.9116 0.05774 0.3374 0.0933 0.935 -1.021 0.098 0.2195
-1.143 0.1334 1.045 -0.9146 -0.63 -0.4001 0.1478 -0.164
-0.6704 0.1508 0.524 0.3137 0.716 -0.5674 0.708 -0.286
1.563 -0.859 -0.2683 0.931 0.4126 0.4429 -0.9487 0.1963
1.194 0.2678 1.013 -0.01338 -0.01953 0.6445 0.5215 1.364
0.696 -0.973 -0.9062 -0.8506 -1.256 0.167 0.1864 1.684
1.429 0.627 -0.11633 0.127 0.4695 -0.42 -0.3699 0.973
0.892 1.882 -0.3708 -1.304 0.3506 -0.09644 0.00925 -0.05643
1.122 -0.593 -0.279 0.927 0.1768 -0.4949 -1.5625 0.5415
-0.262 1.162 -0.5737 1.157 -0.5933 0.002638 -2.066 1.433
-0.0427 0.949 0.439 -0.7207 0.3623 -0.2245 -0.527 0.603
0.4421 2.568 -0.673 -0.8955 0.3423 -0.2224 0.3782 -0.7017
-1.22 -0.7314 1.525 0.7075 -0.842 1.286 -1.023 0.735
1.322 0.00611 -0.2194 -0.4792 0.5303 -0.0693 -0.692 0.3298
-0.47 -1.541 -0.87 1.329 0.2219 -0.714 0.0245 1.798
-0.3835 -0.895 1.496 1.203 0.8745 0.331 0.4944 -0.541
-0.10547 -0.1057 -1.358 -0.9126 1.169 0.6094 0.7373 -0.858
0.3594 -0.8047 0.8374 -2.266 1.913 -0.736 -0.4143 1.829
0.1929 -1.674 -1.949 0.3135 0.0804 -0.11774 -0.1306 -0.0847
0.7007 -0.2018 -1.67 -1.381 0.674 -0.3977 0.812 1.273
-1.529 0.07544 -0.01909 -1.353 2.08 -0.3352 -0.1775 1.412
1.01 -1.023 -0.4583 1.742 -0.6675 0.9907 0.289 -1.466
0.379 -0.289 -0.4028 0.3418 1.388 -0.4563 1.675 -0.3916
2.25 0.0469 -0.4365 0.8784 0.0512 0.632 1.53 1.622
0.624 -1.702 -1.273 1.432 0.691 0.497 0.2131 -0.2457
1.517 1.244 -1.388 0.538 1.45 0.0794 0.4146 -0.1831
0.6025 -0.8003 0.4202 -1.04 -0.7705 1.329 1.143 0.05408
-0.593 0.3232 0.3162 0.5396 -1.035 -0.844 1.802 0.4075
0.9634 0.03735 0.186 -0.03607 -1.96 -0.4275 1.272 -0.9336
0.3828 0.4192 0.4905 -0.3086 0.5024 -1.13 -2.285 0.1624

text_encoder:10:up f2 [768, 1]
00000000: 6b11 ab14 9e0d 5c92 7994 8194 ce14 3816
00000010: 2b0f 9294 6409 6892 b38e e60f 2111 2b11
00000020: 5d14 7d94 1f12 6196 2d02 1a14 210f d094
00000030: f108 d214 9f01 2501 ee8e ae14 1f90 f990
00000040: fa14 380c e294 8301 6913 e707 c591 d015
00000050: 720e 8f94 ee0e 4f10 1307 6d89 880f 770d
00000060: be91 658b dc14 b494 b893 2580 1494 4112
00000070: b294 1990 fd91 f103 8488 b890 f90e da12
00000080: f50c cd0e ea8e 2091 7f11 b310 738e 4710
00000090: 200e 020c 5d8a a50e e585 2690 5e91 3982
000000a0: de8c 1611 ac88 6391 5685 d683 320a 2511
000000b0: 5b82 7282 ba8b 1b86 578e bf11 f70e 7910
000000c0: c20e c190 7491 b104 628b ef01 d291 3b93
000000d0: 7610 3f02 0209 8b0a 8c8e e592 5089 158a
000000e0: b10e c48b 7e8f 750b 8b90 b290 c887 fb10
000000f0: d012 458e 6986 5202 2a12 f30a 658d 7f92
00000100: 2590 8490 8b0b a291 e981 0992 948c a108
00000110: ba09 c489 1890 808d 8005 608c 6f8e 1c11
00000120: 2402 0a8c 8a8f 5993 1e0c eb89 3e08 7d90
00000130: 9f0f fc0f 270a 130a b488 7291 c587 1f89
00000140: dc87 8d83 dd10 1e8d 9b8f 7889 6f90 ce8b
00000150: 2f0f 750e 2282 be07 2388 068e ac04 fb06
00000160: e00d 868e 6a8f 7b8d 6a82 800f a20d b00d
00000170: 9b08 5387 9a90 4511 4111 ce8a 7c8c 580c
00000180: 1b16 ad06 938d d212 4294 ce15 7811 4496
00000190: 5f14 fc10 b194 0188 148c 2194 ce18 448d
000001a0: 9a12 8392 a515 a60e 3b15 1711 5a94 3715
000001b0: 5d0d a213 1b91 e596 b896 6514 3798 9a14
000001c0: c793 ed91 5804 b314 2211 4295 6718 0896
000001d0: c38f 4d81 3d15 5107 468a df92 9c15 530a
000001e0: 9415 2994 6517 6d01 7396 8c94 8493 8412
000001f0: ba93 4316 e914 9d14 b310 9316 f08b ad11
0.0006614 0.00114 0.0003428 -0.0007763 -0.001092 -0.0011 0.001173 0.001518
0.0004375 -0.001116 0.0001645 -0.000782 -0.000409 0.000482 0.000626 0.000631
0.001065 -0.001096 0.000747 -0.001557 3.32e-05 0.001001 0.000435 -0.001175
0.0001508 0.001177 2.474e-05 1.746e-05 -0.000423 0.0011425 -0.000503 -0.000607
0.001215 0.0002575 -0.001192 2.307e-05 0.0009046 0.0001206 -0.0007043 0.001419
0.0003934 -0.001113 0.000423 0.000526 0.00010794 -0.0001656 0.0004597 0.0003335
-0.000701 -0.0002257 0.001186 -0.001148 -0.000942 -2.2e-06 -0.000996 0.0007634
-0.001146 -0.0005 -0.000731 6.014e-05 -0.0001378 -0.000576 0.0004256 0.0008364
0.0003026 0.000415 -0.000422 -0.0006256 0.000671 0.0005736 -0.0003936 0.000522
0.0003738 0.0002446 -0.0001942 0.0004056 -8.994e-05 -0.0005064 -0.000655 -3.39e-05
-0.000297 0.000621 -0.0001426 -0.0006576 -8.14e-05 -5.853e-05 0.0001891 0.000628
-3.594e-05 -3.73e-05 -0.0002358 -9.316e-05 -0.000387 0.0007014 0.000425 0.000546
0.0004125 -0.0005803 -0.0006657 7.16e-05 -0.0002253 2.95e-05 -0.0007105 -0.0008826
0.0005445 3.43e-05 0.0001528 0.0001997 -0.0003996 -0.0008416 -0.0001621 -0.0001856
0.0004084 -0.000237 -0.0004573 0.0002276 -0.0005546 -0.000573 -0.00011873 0.000608
0.0008316 -0.0003827 -9.78e-05 3.54e-05 0.0007524 0.0002121 -0.0003293 -0.000793
-0.000506 -0.000551 0.0002302 -0.0006876 -2.915e-05 -0.0007367 -0.0002794 0.0001413
0.0001748 -0.000176 -0.0004997 -0.0003357 8.39e-05 -0.000267 -0.0003927 0.0006237
3.266e-05 -0.0002465 -0.0004601 -0.000897 0.0002513 -0.0001806 0.0001295 -0.000548
0.0004652 0.0004873 0.0001878 0.0001854 -0.0001435 -0.0006647 -0.00011855 -0.0001563
-0.0001199 -5.42e-05 0.0005937 -0.0003123 -0.0004642 -0.0001669 -0.000541 -0.0002382
0.0004385 0.000394 -3.254e-05 0.00011814 -0.0001262 -0.0003676 7.13e-05 0.0001065
0.0003586 -0.0003982 -0.0004525 -0.0003345 -3.684e-05 0.0004578 0.0003438 0.0003471
0.0001405 -0.00011176 -0.0005617 0.0006433 0.0006413 -0.0002077 -0.0002737 0.0002651
0.001491 0.00010186 -0.0003402 0.0008326 -0.0010395 0.001417 0.0006676 -0.00153
0.001067 0.0006084 -0.001145 -0.0001222 -0.000249 -0.001008 0.002346 -0.0003214
0.000806 -0.000795 0.001378 0.0004058 0.001277 0.0006213 -0.001062 0.001273
0.0003273 0.0009317 -0.000623 -0.001683 -0.00164 0.001073 -0.002058 0.001123
-0.0009494 -0.0007234 6.63e-05 0.001147 0.0006266 -0.001284 0.00215 -0.001472
-0.0004737 -1.985e-05 0.001279 0.00011164 -0.0001915 -0.0008388 0.001369 0.000193
0.001362 -0.001016 0.001805 2.176e-05 -0.0015745 -0.00111 -0.0009174 0.0007954
-0.000943 0.001529 0.001199 0.001126 0.0005736 0.001605 -0.0002422 0.000693

text_encoder:11:down f2 [1, 768]
00000000: c533 8039 78bb 54bc 7641 d2bc cb37 c6bd
00000010: 6a29 b3b8 892d a8c0 e238 dbb5 3d2b d3bc
00000020: 633d 2e3d 2038 aabc 6d3b 8a3d 1635 7041
00000030: 0f28 14bc 2d3d 21bc 79bc 8840 b7bb ca3d
00000040: 43be 90be 613b 2ca5 bdc1 febc cc41 3734
00000050: e6bc 1fb9 5ebf f3b4 d02a b3ba 5534 f13e
00000060: 3e35 ddbc 85bc 74ac 85ba b031 9a34 02bc
00000070: 783d 86bb c7ba 6139 6fc1 3130 d13d fbbe
00000080: e83d 0741 5ab0 643c 5739 a538 c4b6 493c
00000090: 1abc 202d 6835 ed2d 9c38 4039 38b7 b33b
000000a0: 9f3a d03e b3bc e035 1639 e2b5 5cba 723b
000000b0: a32f bab6 6838 10bc eab5 f535 0bbb d323
000000c0: 9036 18bd 5bba 12b4 b033 423a 0930 a43d
000000d0: 96bd 40ad a6b4 5e3c 64b9 7f39 b0b5 a2ba
000000e0: febc caa5 e3b9 172e 61c0 deb4 91b6 f3b9
000000f0: 812f cbb7 5d37 aa37 a73a 49bc 21b7 82ba
00000100: 132d 1b31 e735 55bc 2039 99b7 003c 5ebd
00000110: 6cbc ba36 b9b8 e23b 4ebd 9841 4432 63b5
00000120: 52bf d7ad 6a33 f137 793b 193a 27b4 49ba
00000130: 413b 6bba 66b8 f43b 71bd 9635 ec3c a1b4
00000140: 64bb 37c0 f937 013d a03d a33d e6b3 0cbb
00000150: 26b8 bc3f 93be adb8 c1bd 0534 fea0 962d
00000160: 3935 6bbb 423f 0b3e 0f33 1a3e 353e ff35
00000170: 2e30 b837 30b0 9839 073e 9e38 fbb3 5a3c
00000180: 82b8 9abd b5a7 d33d 8ebd f740 9cb8 56bd
00000190: 8635 c934 f43d 5db1 dd24 ff23 872c ab37
000001a0: af35 023d ddbd 1d37 1938 35b7 da39 a238
000001b0: 1dbd 643d 17b0 5039 3bba eeb5 2abd 82b8
000001c0: 18bd 31b9 273b a0b8 512e 7eb3 433e 77a9
000001d0: 9fbc 6637 033a 8740 dd3d 56b7 43b6 bb30
000001e0: ce2e 02b4 f434 b8bb 7fbf e524 893c 773c
000001f0: 28b7 65c0 96b7 f531 883c b6c0 4db2 d53b
0.2428 0.6875 -0.9336 -1.082 2.73 -1.205 0.487 -1.443
0.0423 -0.5874 0.0865 -2.328 0.6104 -0.366 0.05655 -1.206
1.347 1.295 0.5156 -1.166 0.928 1.385 0.3179 2.719
0.0317 -1.02 1.294 -1.032 -1.118 2.266 -0.9644 1.447
-1.565 -1.641 0.9224 -0.0202 -2.87 -1.248 2.898 0.2634
-1.225 -0.64 -1.842 -0.3093 0.05322 -0.8374 0.2708 1.735
0.3276 -1.216 -1.13 -0.0696 -0.815 0.1777 0.2876 -1.002
1.367 -0.9404 -0.847 0.6724 -2.717 0.131 1.454 -1.745
1.477 2.514 -0.136 1.098 0.6675 0.5806 -0.4229 1.071
-1.025 0.0801 0.338 0.0926 0.576 0.6562 -0.4512 0.9624
0.8276 1.703 -1.175 0.3672 0.6357 -0.3677 -0.795 0.9307
0.1193 -0.4204 0.551 -1.016 -0.3696 0.3723 -0.8804 0.01528
0.4102 -1.273 -0.7944 -0.2544 0.2402 0.782 0.1261 1.41
-1.396 -0.08203 -0.2905 1.092 -0.674 0.687 -0.3555 -0.829
-1.248 -0.02261 -0.736 0.09515 -2.19 -0.3042 -0.4104 -0.7437
0.11725 -0.487 0.4602 0.479 0.8315 -1.071 -0.4456 -0.8135
0.0793 0.1595 0.369 -1.083 0.6406 -0.4749 1.0 -1.342
-1.105 0.4204 -0.5903 0.9854 -1.326 2.797 0.1958 -0.3367
-1.83 -0.09125 0.2317 0.4963 0.934 0.762 -0.2595 -0.7856
0.9067 -0.8022 -0.55 0.994 -1.36 0.349 1.23 -0.2893
-0.924 -2.107 0.4983 1.251 1.406 1.409 -0.2468 -0.881
-0.5186 1.934 -1.644 -0.5845 -1.438 0.2512 -0.00975 0.0873
0.3264 -0.9272 1.814 1.511 0.2206 1.525 1.552 0.3748
0.1306 0.4824 -0.1309 0.699 1.507 0.577 -0.2494 1.088
-0.5635 -1.4 -0.0301 1.456 -1.389 2.482 -0.576 -1.334
0.3452 0.299 1.488 -0.1676 0.019 0.01562 0.07074 0.4792
0.3552 1.252 -1.466 0.4446 0.512 -0.4504 0.7314 0.579
-1.278 1.348 -0.1278 0.664 -0.779 -0.3706 -1.291 -0.5635
-1.273 -0.649 0.894 -0.578 0.0987 -0.2341 1.565 -0.0427
-1.155 0.4624 0.7515 2.264 1.466 -0.4585 -0.3914 0.1478
0.1063 -0.2505 0.3096 -0.965 -1.874 0.01912 1.134 1.116
-0.4473 -2.197 -0.474 0.1862 1.133 -2.355 -0.1969 0.979

text_encoder:11:up f2 [768, 1]
00000000: 2486 5b94 9213 340f 7513 5c13 7d12 918f
00000010: 2310 378d 6194 818a 120b 0494 fa94 0b10
00000020: 8010 068b 4895 0b99 f490 550e ab91 168e
00000030: d080 f605 2b96 fa80 1f87 4b12 e30d 578f
00000040: 0d0f d98b 780e 2c0d ab90 a090 9b11 0a90
00000050: 2a99 7390 7c91 9706 0011 3402 2d16 2810
00000060: 530b be8e fd8a de81 9094 4c10 d991 e08d
00000070: 5102 3d88 5691 ae0c d00a a90e 5b8d 4d96
00000080: bc10 8111 9894 2f11 b210 840e 5690 7088
00000090: 278f 8e04 6411 390a 9d10 6a8e b213 090b
000000a0: bb88 ae02 c907 4612 e284 8692 e391 970e
000000b0: 588e d70a ee90 218e 4513 318f da10 930d
000000c0: 3d05 de0f 3888 960e 9016 b30c e910 b615
000000d0: 7410 bb0f c008 e80f 3f0d 8502 028a b88e
000000e0: 6791 b48c c592 8e15 d111 8390 2392 f609
000000f0: fb12 9e0d 430e 028e dc8e a905 8e11 fe89
00000100: 1290 bf14 d813 610f 1d92 5695 5112 4f93
00000110: a78c 6c84 0712 ab16 bd0a a803 be92 ab08
00000120: 4a80 5510 1794 1291 b785 228a 9f0b 7f81
00000130: 3287 9308 e110 2614 7586 2794 5009 8393
00000140: b280 9a15 6e11 b60e ad0c 740d 6291 b292
00000150: 7918 ab18 5a91 7d0e 3a91 6f09 e70c 7b0d
00000160: 710f e989 7c8c b98e 1580 2d90 5d92 120d
00000170: fd8b 4d89 f30e dc92 a50f 8993 2c0d 6b11
00000180: 7182 4904 300d 078c 8314 ef11 0a8a dd95
00000190: 8014 8e0d 1d12 158e 3490 438c dc0f 328c
000001a0: 588f eb12 7203 0290 0b8a 7c07 6981 6790
000001b0: 8190 550c 8300 df13 258b 718d 620f 418f
000001c0: b58d fa0e 0f8e c812 c390 190d 1802 2c91
000001d0: 4813 1a0d 1e92 1092 3e90 1494 6519 fa96
000001e0: b590 9583 950a 898b 1e09 be02 4014 5c02
000001f0: f30b 0185 ac8d 9308 a391 2986 820e a595
-9.37e-05 -0.001063 0.000924 0.0004396 0.0009103 0.0008984 0.000792 -0.0004618
0.000505 -0.0003183 -0.001069 -0.0001985 0.0002158 -0.00098 -0.001215 0.0004935
0.0005493 -0.0002143 -0.001289 -0.002462 -0.0006046 0.0003865 -0.000692 -0.0003715
-1.24e-05 9.096e-05 -0.001506 -1.49e-05 -0.00010866 0.000768 0.0003593 -0.000448
0.0004303 -0.0002395 0.0003948 0.0003157 -0.00057 -0.0005646 0.0006843 -0.000493
-0.002522 -0.000543 -0.0006695 0.00010055 0.0006104 3.36e-05 0.001508 0.0005074
0.0002235 -0.0004115 -0.0002133 -2.85e-05 -0.001114 0.0005245 -0.000714 -0.0003586
3.535e-05 -0.0001293 -0.0006514 0.0002856 0.0002079 0.0004065 -0.0003269 -0.001538
0.000578 0.000672 -0.0011215 0.000633 0.000573 0.0003977 -0.0005293 -0.0001354
-0.0004365 6.95e-05 0.000658 0.0001899 0.000563 -0.0003915 0.0009394 0.0002147
-0.0001444 4.09e-05 0.0001188 0.000766 -7.45e-05 -0.0007963 -0.0007186 0.0004022
-0.0003872 0.0002087 -0.000602 -0.000374 0.0008874 -0.000439 0.000592 0.0003402
7.993e-05 0.0004802 -0.0001287 0.000402 0.001602 0.0002868 0.0005994 0.001394
0.0005436 0.0004718 0.000145 0.0004826 0.0003202 3.844e-05 -0.0001833 -0.00041
-0.0006595 -0.000287 -0.0008264 0.001356 0.00071 -0.0005507 -0.000749 0.0001819
0.000852 0.0003428 0.0003822 -0.0003667 -0.0004187 8.637e-05 0.000678 -0.0001829
-0.000497 0.001159 0.0009575 0.0004504 -0.0007463 -0.001303 0.000771 -0.000892
-0.000284 -6.75e-05 0.0007358 0.001628 0.0002056 5.58e-05 -0.000823 0.0001425
-4.4e-06 0.000529 -0.0009985 -0.000619 -8.72e-05 -0.0001872 0.0002326 -2.28e-05
-0.0001098 0.0001396 0.0005956 0.001013 -9.85e-05 -0.001014 0.0001621 -0.000917
-1.06e-05 0.001368 0.000663 0.0004096 0.0002854 0.0003328 -0.000657 -0.0008173
0.002184 0.00228 -0.0006533 0.000396 -0.000638 0.0001658 0.0002992 0.0003345
0.0004542 -0.0001804 -0.0002737 -0.0004103 -1.25e-06 -0.0005097 -0.000777 0.0003095
-0.0002438 -0.0001618 0.0004241 -0.0008373 0.0004666 -0.00092 0.0003157 0.0006614
-3.725e-05 6.54e-05 0.0003166 -0.0002458 0.0011015 0.0007243 -0.0001843 -0.001431
0.001099 0.000339 0.0007463 -0.0003712 -0.000513 -0.00026 0.0004797 -0.000256
-0.0004482 0.0008445 5.26e-05 -0.000489 -0.0001844 0.0001142 -2.15e-05 -0.0005374
-0.00055 0.0002644 7.8e-06 0.000961 -0.000218 -0.000332 0.0004506 -0.0004427
-0.0003483 0.0004258 -0.0003698 0.000828 -0.0005813 0.0003111 3.195e-05 -0.0006313
0.000889 0.0003114 -0.0007467 -0.00074 -0.000518 -0.000996 0.002634 -0.001703
-0.0005746 -5.466e-05 0.0002009 -0.00023 0.0001562 4.184e-05 0.001038 3.6e-05
0.0002426 -7.635e-05 -0.0003462 0.0001396 -0.000688 -9.4e-05 0.0003972 -0.001378

text_encoder:12:down f2 [1, 768]
00000000: 7dbd d4c0 b43a 143a 68bd 86b6 302e dfbb
00000010: cbb8 6eba 55b1 36b5 a6be 16bb 03ba d9b7
00000020: 663c 4fbf 273e ecae ea40 8d37 e6b3 c4b5
00000030: 29b5 2f42 bcbe 4fb8 093a 643b 9ab9 002c
00000040: d43e c1b9 e23a 27bc 01b7 ce2b d9b6 bcbd
00000050: 8cbc b4b8 eebc e8a8 6a28 2a35 66b2 f7ba
00000060: 11b5 aabc d1b6 9aad 13bf 7734 6bb7 3ebb
00000070: 98bc 18b3 cb34 f531 2938 79bd 0cb4 2cba
00000080: 49ac ef3a 0a3b 9539 beb7 7dc0 ff37 05bd
00000090: 913a e5b5 0ab7 ebb8 5e3a 9f37 a337 a7b6
000000a0: 17b8 3ab6 59b5 9232 e7a5 cab7 a33c 853b
000000b0: 013b 9db8 422f d2b7 1235 953e 803c 99bb
000000c0: f938 f430 323e 1f2d 8832 223b 76c0 69b4
000000d0: 1eb8 73a5 1d32 7c37 843a cbb9 36bd b8b5
000000e0: af30 533a 18ac 183e c9bb afb5 cb39 40bc
000000f0: 1d3f c233 29b8 60bd 19ae ea40 5232 1541
00000100: 2831 aab0 70b9 a9b8 b3c1 0840 66b3 043a
00000110: 5c38 923c 4fbe c7be 1c36 ddb7 7ab6 193e
00000120: 6b40 8339 e2b9 acbf ecbc d2b5 c4b3 20b4
00000130: cfb5 3dbe 1540 543b 0c3c 57b4 cd3b a9bb
00000140: 9eb6 91be 7538 0e34 ee3f e7a6 dec1 713e
00000150: 173f 09bd fa38 45b4 cdb8 9135 fdbc 8a3d
00000160: 73a8 e3b4 633e babc 0d2d f528 8340 fd3b
00000170: ce3e e237 5abb a132 e4b7 9bb9 5bba b4bd
00000180: b8b8 ec40 54bd 6eb6 e9be 6db5 57b6 62b2
00000190: 15af eab6 1cbd 3937 19bd 30b1 08b4 13b6
000001a0: 63bd 503f 263c c3bd a431 03b6 3040 78b3
000001b0: bf3c 7b3d 683a babc 65b8 dc37 47bc 2eab
000001c0: f6bc acb3 8b38 53bd e63c 5e38 043b 66ba
000001d0: 5db3 183a 02bc bac1 48bb 5f38 5936 9a30
000001e0: d3b1 9e3a e4b4 7a3b 73b6 822a 6338 57b6
000001f0: 113a 76c0 6740 e4b8 25bc b0ba 78bb 7c3c
-1.372 -2.414 0.838 0.76 -1.352 -0.4077 0.0967 -0.984
-0.599 -0.8037 -0.1666 -0.3257 -1.662 -0.8857 -0.7515 -0.4905
1.1 -1.827 1.538 -0.10815 2.457 0.472 -0.2468 -0.3604
-0.3225 3.092 -1.684 -0.5386 0.7544 0.924 -0.7 0.0625
1.707 -0.719 0.8604 -1.038 -0.4377 0.06097 -0.428 -1.434
-1.137 -0.588 -1.232 -0.03833 0.0345 0.3228 -0.2 -0.8706
-0.3167 -1.166 -0.426 -0.0875 -1.769 0.279 -0.4636 -0.9053
-1.148 -0.2217 0.2996 0.1862 0.52 -1.368 -0.253 -0.7715
-0.06696 0.8667 0.88 0.6978 -0.484 -2.244 0.4998 -1.255
0.821 -0.3684 -0.44 -0.6147 0.796 0.4763 0.4773 -0.4158
-0.511 -0.3892 -0.3342 0.2053 -0.02306 -0.4868 1.159 0.94
0.8755 -0.5767 0.1134 -0.4888 0.317 1.6455 1.125 -0.9497
0.6216 0.1548 1.549 0.08 0.2041 0.8916 -2.23 -0.2756
-0.5146 -0.02129 0.191 0.4678 0.8145 -0.724 -1.303 -0.3574
0.1464 0.7905 -0.06396 1.523 -0.973 -0.3552 0.724 -1.0625
1.778 0.2424 -0.52 -1.344 -0.0953 2.457 0.1975 2.541
0.1611 -0.1458 -0.6797 -0.5825 -2.85 2.016 -0.2312 0.752
0.545 1.143 -1.577 -1.694 0.3818 -0.4915 -0.4048 1.524
2.209 0.689 -0.7354 -1.918 -1.23 -0.3638 -0.2427 -0.2578
-0.363 -1.56 2.041 0.916 1.012 -0.2712 0.975 -0.9575
-0.4136 -1.642 0.557 0.2534 1.982 -0.02696 -2.934 1.61
1.772 -1.259 0.622 -0.2668 -0.6 0.348 -1.247 1.385
-0.03476 -0.3054 1.597 -1.182 0.0789 0.03873 2.256 0.9985
1.701 0.4927 -0.919 0.2072 -0.4932 -0.7007 -0.7944 -1.426
-0.59 2.46 -1.332 -0.4019 -1.728 -0.339 -0.3962 -0.1995
-0.11066 -0.4321 -1.277 0.4514 -1.274 -0.1621 -0.252 -0.3796
-1.347 1.828 1.037 -1.44 0.1763 -0.3757 2.094 -0.2334
1.187 1.37 0.801 -1.182 -0.5493 0.4912 -1.069 -0.0561
-1.24 -0.2397 0.568 -1.331 1.225 0.546 0.877 -0.8
-0.2301 0.7617 -1.002 -2.863 -0.91 0.5464 0.3967 0.1438
-0.182 0.827 -0.3057 0.9346 -0.403 0.05084 0.5483 -0.3962
0.7583 -2.23 2.201 -0.6113 -1.036 -0.836 -0.9336 1.121

text_encoder:12:up f2 [768, 1]
00000000: b903 9c84 6c82 3689 f705 330c 178f ee91
00000010: 7913 0a09 728d c30d 3f8e 028b 520e b60a
00000020: 5306 1b80 150d f990 9190 7e95 920c 5f80
00000030: 628d 9911 f68e 3e0e 4690 8b10 3b94 0008
00000040: 5d94 b489 8613 2b05 2800 c00a 1a0c 4f8c
00000050: 0c05 2316 0316 f604 100d a78c ba10 9b86
00000060: e606 6113 bc0c 1f0a 2707 6c8e e784 7c8e
00000070: 970e df84 3300 390f 0509 6592 398a 4592
00000080: 0f13 080d 1e94 bb90 d00b ea82 9e12 8192
00000090: 9b90 240b 0489 3603 5493 7a8c 088d 3f11
000000a0: 0f12 a605 f813 6104 540e 5995 5b12 f791
000000b0: 2405 4891 ef0d 3884 2407 ef8f 0209 7d8d
000000c0: 4c91 1510 1a0e b912 eb91 160a b18f 8711
000000d0: a908 b28e e983 d313 9209 318f e595 eb8a
000000e0: ea8c f60a 0583 178c 138d 4c8e 1e12 d103
000000f0: 4a0d 7e94 6e12 558c 9a07 b083 9403 6992
00000100: ad11 1106 618d e00f 6f0d ef90 d689 ff0e
00000110: 080a 9d05 420f dd8a 4112 5585 b38f 750d
00000120: c08c 9a92 d10c d68e af8c 640a 0001 d20c
00000130: 3f10 2f02 b588 bd0d 8d07 738c 7e81 638c
00000140: 0a8e 420b ee0c 548d 878e bd0f 7605 050a
00000150: 258c eb91 2a06 f30b ee08 1289 4108 0b88
00000160: c70f 4689 3004 2d89 5f82 0e09 a003 a28d
00000170: ee8e ac89 820b 7d00 9b83 5a0c 2e83 d204
00000180: fd05 9091 0392 188f 398d ff00 0c0d 0885
00000190: b18b 8f80 8d8c 1d80 f303 6090 550d 8e91
000001a0: d310 f980 578e f78d d40c 5213 0b8a 538a
000001b0: 1108 d586 e30b 668d 2190 0702 1791 a280
000001c0: 3110 ff11 e60a f88f f60c 2614 fe85 0592
000001d0: 320c c189 e38c fc81 2108 9590 010a cc89
000001e0: aa09 680e 6886 778f 9e0f 3d8f 3210 370d
000001f0: 828c 0911 3f8a 6d0b ab09 2a90 d486 cb88
5.68e-05 -7.033e-05 -3.695e-05 -0.000159 9.1e-05 0.0002563 -0.0004327 -0.000724
0.000912 0.0001538 -0.0003324 0.0003517 -0.0003812 -0.0002139 0.0003858 0.0002048
9.65e-05 -1.6e-06 0.0003102 -0.000607 -0.0005574 -0.001341 0.000279 -5.66e-06
-0.0003285 0.0006833 -0.0004249 0.000381 -0.0005217 0.0005546 -0.001033 0.0001221
-0.001065 -0.000174 0.0009184 7.886e-05 2.4e-06 0.000206 0.0002503 -0.000263
7.7e-05 0.001498 0.001468 7.57e-05 0.000309 -0.000284 0.000577 -0.0001008
0.00010526 0.0009007 0.000289 0.0001868 0.00010914 -0.000392 -7.48e-05 -0.0003958
0.0004022 -7.43e-05 3.04e-06 0.0004408 0.0001532 -0.0007806 -0.0001899 -0.0007653
0.0008616 0.000307 -0.001005 -0.0005774 0.0002384 -4.447e-05 0.000808 -0.000794
-0.000562 0.0002179 -0.0001531 4.9e-05 -0.0008945 -0.0002732 -0.000307 0.0006404
0.0007396 8.62e-05 0.0009727 6.68e-05 0.0003862 -0.001306 0.000776 -0.000728
7.844e-05 -0.0006447 0.0003622 -6.44e-05 0.00010896 -0.0004842 0.0001528 -0.000335
-0.0006466 0.0004983 0.0003724 0.0008206 -0.0007224 0.0001857 -0.0004694 0.0006747
0.0001422 -0.0004086 -5.966e-05 0.000955 0.00017 -0.000439 -0.001439 -0.0002111
-0.0003 0.0002124 -4.61e-05 -0.0002496 -0.0003097 -0.0003843 0.0007467 5.823e-05
0.0003228 -0.001097 0.000785 -0.0002644 0.000116 -5.627e-05 5.46e-05 -0.0007825
0.000693 9.257e-05 -0.0003283 0.0004807 0.0003316 -0.0006022 -0.0001781 0.000427
0.000184 8.565e-05 0.000443 -0.0002095 0.0007634 -8.136e-05 -0.00047 0.000333
-0.00029 -0.000806 0.000294 -0.0004172 -0.0002859 0.000195 1.526e-05 0.0002942
0.0005183 3.33e-05 -0.0001436 0.0003502 0.0001152 -0.0002716 -2.277e-05 -0.0002677
-0.0003686 0.0002215 0.000301 -0.0003252 -0.0003984 0.0004723 8.33e-05 0.0001837
-0.000253 -0.0007224 9.406e-05 0.0002426 0.0001504 -0.0001547 0.0001298 -0.0001234
0.0004747 -0.0001609 6.39e-05 -0.000158 -3.62e-05 0.0001543 5.53e-05 -0.0003438
-0.000423 -0.0001731 0.0002291 7.45e-06 -5.5e-05 0.0002656 -4.85e-05 7.355e-05
9.14e-05 -0.000679 -0.000734 -0.000433 -0.0003188 1.52e-05 0.000308 -7.68e-05
-0.0002347 -8.5e-06 -0.0002778 -1.7e-06 6.026e-05 -0.000534 0.0003254 -0.000678
0.000589 -1.484e-05 -0.000387 -0.000364 0.0002947 0.0008936 -0.0001844 -0.000193
0.0001241 -0.00010425 0.0002407 -0.0003295 -0.000504 3.093e-05 -0.0006213 -9.66e-06
0.0005116 0.000732 0.0002105 -0.0004864 0.0003028 0.001013 -9.143e-05 -0.000735
0.000256 -0.0001756 -0.0002983 -3.03e-05 0.000126 -0.0005593 0.0001832 -0.0001769
0.0001729 0.000391 -9.775e-05 -0.0004556 0.000465 -0.0004418 0.000512 0.0003183
-0.0002751 0.0006146 -0.0001906 0.0002266 0.000173 -0.0005083 -0.0001042 -0.0001463

text_encoder:13:down f2 [1, 768]
00000000: d4be 3fbf 2f3a f8bb 4e35 2737 dabb 0d40
00000010: f640 9f3c 5dba f93c acc0 40b2 75bd d0ba
00000020: 80ba e73b bcbf c135 763e 6239 4d30 4c33
00000030: f0b5 d13c 622e 3f3d 9738 d52c 37ab 50b4
00000040: 16c0 14b8 5ebf 7a3d 4bbb 2614 06b9 26bb
00000050: 9b32 dd41 0c3c 093b 60c1 2cb3 fcb8 2e30
00000060: 9b26 5bbd c025 9fae dd37 9328 e73c cfbb
00000070: 8730 4832 95ab 8029 10b7 ae3d 712f 2235
00000080: 58b6 0bbc 83bd f938 b7ba c8b3 fec0 96b8
00000090: b3b0 343b 0539 1c3d bf33 50b9 f0b8 583b
000000a0: 9eb3 ebbb 01b8 28bb 7fa0 85c0 0ebd d936
000000b0: 71b5 c5b8 d5ba ffba 58be 44bd d739 92b8
000000c0: 1d38 5340 05b8 2e35 e03b 462f 94bc eeba
000000d0: 283e 5d3c 25b1 61bc 6328 21bc b431 3e40
000000e0: 92b8 1b3e 7d36 7934 f839 22b7 123c c138
000000f0: b2ba 32ac 08bf d8b8 27bc 7b40 1f39 99b9
00000100: 2e3c ce3f d93b 4436 233f 1c3f f738 7bbd
00000110: 7e33 ddb5 21bc 25a7 3132 403e 09bb 773c
00000120: 573c d439 36be 0da7 46c0 41bb 3139 a238
00000130: ecbd 01be 322a b2af 8633 3a40 d5af a3bd
00000140: 3fb2 84b4 02b2 1834 c13c ba36 f1bd 3c31
00000150: ceb1 0b39 0fbf 0c3d 6abd 80bd e230 3ea8
00000160: 2ab4 5231 a8ba ad33 e52d 413b 81b2 83b5
00000170: 143e 093c 07b4 9336 2eb3 693a 7ab8 f4b7
00000180: f0b5 a735 ccbb 07bd 07bc c0bc 063d 9eba
00000190: 1c33 aebd ac3e 91b8 3934 4c3a f6b6 ab3c
000001a0: 1fb4 122e 48b6 073c ef30 96aa 05bc 0eb4
000001b0: a6bc bcbd 2242 15bc 2b3b 8fbc e3bc 5929
000001c0: 33c0 b72c 092f 983a deb8 8b38 1133 8eb5
000001d0: 70bb 093f 4029 68bc 4a32 ea3c dbb4 7529
000001e0: a93d 6abe 73b8 65b4 e8b4 8caf a43b 03b5
000001f0: 3937 f5ba 5838 fcb8 f6b5 9d38 243f 6cb6
-1.707 -1.812 0.773 -0.996 0.3315 0.447 -0.9814 2.025
2.48 1.155 -0.7954 1.243 -2.336 -0.1953 -1.364 -0.8516
-0.8125 0.988 -1.934 0.3596 1.615 0.673 0.1344 0.228
-0.371 1.204 0.09973 1.312 0.5737 0.0755 -0.05637 -0.2695
-2.043 -0.51 -1.842 1.369 -0.9116 0.001013 -0.628 -0.8936
0.2064 2.932 1.012 0.8794 -2.688 -0.2241 -0.623 0.1306
0.0258 -1.339 0.02246 -0.10345 0.4915 0.03574 1.226 -0.976
0.1415 0.1963 -0.05923 0.04297 -0.4414 1.42 0.1163 0.3208
-0.3965 -1.011 -1.378 0.6216 -0.8394 -0.2432 -2.496 -0.573
-0.1469 0.9004 0.6274 1.277 0.2421 -0.664 -0.617 0.918
-0.238 -0.9897 -0.5005 -0.8945 -0.00878 -2.26 -1.264 0.428
-0.34 -0.596 -0.854 -0.8745 -1.586 -1.316 0.73 -0.5713
0.514 2.162 -0.5024 0.3237 0.9844 0.11365 -1.145 -0.866
1.539 1.091 -0.1608 -1.095 0.03427 -1.032 0.1782 2.121
-0.5713 1.526 0.4055 0.2795 0.746 -0.4458 1.018 0.594
-0.837 -0.06555 -1.758 -0.6055 -1.038 2.24 0.64 -0.6997
1.045 1.951 0.981 0.3916 1.784 1.777 0.6206 -1.37
0.2341 -0.3665 -1.032 -0.02791 0.1935 1.5625 -0.8794 1.116
1.085 0.7285 -1.553 -0.02754 -2.137 -0.9067 0.649 0.579
-1.48 -1.501 0.0484 -0.12024 0.2351 2.113 -0.1224 -1.409
-0.1952 -0.2822 -0.1877 0.2559 1.188 0.4204 -1.485 0.1636
-0.1814 0.6304 -1.765 1.262 -1.354 -1.375 0.1526 -0.03314
-0.2603 0.1663 -0.832 0.2399 0.0921 0.9067 -0.2032 -0.3445
1.52 1.009 -0.2517 0.411 -0.2244 0.8013 -0.5596 -0.497
-0.371 0.3533 -0.9746 -1.257 -1.007 -1.1875 1.256 -0.827
0.2222 -1.42 1.668 -0.571 0.264 0.787 -0.435 1.167
-0.2576 0.09485 -0.3926 1.007 0.1542 -0.05145 -1.005 -0.2534
-1.162 -1.434 3.066 -1.0205 0.896 -1.14 -1.222 0.04178
-2.1 0.07367 0.1099 0.824 -0.6084 0.568 0.2208 -0.3472
-0.9297 1.759 0.04102 -1.102 0.1965 1.229 -0.3035 0.04263
1.415 -1.604 -0.556 -0.2747 -0.3066 -0.1179 0.955 -0.3132
0.4514 -0.8696 0.543 -0.623 -0.3726 0.5767 1.785 -0.4014
